W1.npy (npy, 802944 bytes, 1 tensors)

array f8 [128, 784]
-6.742777584608675e-285 -1.3580214754103785e-285 -1.1023051945714554e-284 -2.6904142350251902e-285 1.6679992754307713e-285 -2.1750070297933878e-285 -5.294634059614276e-285 1.0814709166420442e-284
1.3742762657501167e-284 1.1310166003660133e-285 3.915181925752374e-285 3.537443379328126e-285 -5.1790568637442184e-05 -0.00011340348649922673 5.4493541938703925e-285 -5.661531969490382e-285
-2.154099128022343e-285 -5.87600733012654e-285 -2.0778656048779262e-285 -2.1710044138010322e-285 4.670195742944192e-286 -8.163052543698687e-286 2.9959330941616277e-285 -1.300206329047678e-285
-1.2340463316850733e-284 2.6428718501055745e-285 1.338427338779164e-285 -5.8535469244482374e-285 -1.1006556087941677e-285 -2.7035387916082636e-285 -3.852799142651659e-285 -3.4097771900104656e-285
-4.134759715291709e-285 -1.0571309852667628e-284 -0.00010993982173518446 -0.00016463983849403495 -0.00037698779189312157 -0.00019564353756486676 -0.000374012955229268 -0.0004982458360207146
-0.0007102478041712878 -0.0007050483929198446 -0.00037830555753368936 -0.0006402095401100325 -0.00156207904455144 -0.0005155775863158511 -6.507881307153376e-05 -5.321989770199861e-05
-6.922600513266144e-05 -2.979245208425841e-05 -2.101795157925171e-06 3.004841588879575e-285 -5.435148873353352e-285 7.141927584131978e-285 -4.9544360025671985e-285 -2.9832061774182346e-285
-7.008623718387837e-285 1.426147630343664e-284 -1.0127586524161439e-284 -1.2216763791907309e-285 -5.502498288172104e-06 -9.855220814636594e-07 -5.602889936704396e-05 -0.0006084958231164752
-0.0008346512118088016 -0.001111564885383996 -0.002426772990719706 -0.0026918331491761907 -0.0035735399736559243 -0.003885131098864943 -0.004019220599412133 -0.0035203223590942728
-0.004299778810372375 -0.003218968201100234 -0.002244395048081873 -0.0008920636404881527 -0.0005206184593101301 -0.00037222500116738244 -0.0001554361305273301 -5.6130771153890486e-05
-2.1122555486289943e-05 -1.5168689728999895e-285 1.1030580088551311e-284 -6.269829223862149e-285 -2.853250305588423e-285 -5.125875837003478e-285 1.14274037248144e-05 2.7208104106700926e-06
2.896951477129158e-06 0.00017070406019905124 -2.600869219706296e-05 -0.00119414763897681 -0.0025364342292937894 -0.004209590156878432 -0.006528916895490333 -0.007239406048611047
-0.00705357470938219 -0.010307913881065552 -0.010516697791473285 -0.010128830928841617 -0.010028428845897866 -0.008478180591288763 -0.007321464322922609 -0.0054061650545998196
-0.004041881367972104 -0.0033633995565977006 -0.0020539764926720233 -0.0011382967450873712 -0.0006416343842226288 -9.700109637164042e-05 -7.051602055854384e-05 1.1720039737606904e-284
6.387374304585675e-285 -1.1418861263561083e-284 5.3976376949091074e-05 0.00010113399914582954 0.00032219595027220094 0.001117810699969663 0.001321197484474937 -9.689103085922711e-05
-0.0018482886398525525 -0.006690812493303753 -0.00825217926142005 -0.00793941845364069 -0.009344018661869334 -0.009576217498602276 -0.012950008951503751 -0.01385008669247447
-0.016085854293636598 -0.01677775782444264 -0.01134911408513463 -0.0052978219155197575 -0.005259038820170856 -0.0018283907546868873 -0.0006351983325686085 -0.00032936474296268444
-0.0005785431642461827 -0.0008135491437364994 -0.0002977076892408405 -7.859026730404121e-05 -6.183975673928925e-285 7.298784501156998e-286 7.435322139003975e-05 0.0005528013179552076
0.0010875863237500018 0.0027651325194168568 0.003806235097802448 0.0016678331475989707 -0.002713203273634373 -0.004669916266222585 -0.004971159166346479 -0.0076782003804996704
-0.013049758493453394 -0.014145186326951853 -0.015741491457993962 -0.01624777893924721 -0.022989514968446218 -0.029624941555322148 -0.02523259716267279 -0.018801161524946833
-0.013413566967502469 -0.005850850727446173 -0.0005908827460304963 0.001678173481760029 0.0008279882219331667 -0.0013221227846918451 -0.0005100765273787758 -6.307658222358516e-05
8.375732159322112e-285 2.195494403835129e-06 -0.00011665110158150051 0.0009708889750293763 0.0031708083923484244 0.005279174623366947 0.0059022470099911835 0.0023591357227100524
-0.00039935868482446324 -0.0020417255818502584 -0.0005242423988612442 0.0019715775258282503 -0.004940281298695386 -0.0023563350829164382 -0.005882518941330217 -0.01479482454884022
-0.01167007663717363 -0.011568644276736584 -0.01145294547742776 -0.013305407444983491 -0.004938424890602033 -0.0026272255010049753 -0.0025725234739604414 -0.0037359362750756355
-0.0040558202789647115 -0.0032123159864955726 -0.0002765148288503955 -0.00022859683335852278 -4.175071107185478e-07 9.904114229534641e-05 -0.00019394206604438395 0.001219608947135489
0.0037433744536102247 0.0044842084419585435 0.0019038928629956414 -0.0065595377596014935 -0.009664954736699505 -0.005772633577050588 -0.0074366524258288385 -0.006393066393557854
-0.0039053169888996616 0.002641541754228702 0.004694596870779784 -0.0006101392751451469 0.0037394983155882907 0.006219983866292051 -0.00706765526607174 -0.0047693261041736835
-0.0004979493897835148 -0.0045919462565013934 -0.007843505462033228 -0.014743889713663673 -0.012868930596526126 -0.0058926368964467915 -0.001127192047373377 -0.00018576520873431042
-1.6966778329200608e-06 -0.00017852374895219482 -0.00038392703416136183 0.0008907780832220429 0.002705905790816384 5.9987479031440146e-05 -0.006293810105611928 -0.015752830180170308
-0.015803833761380722 -0.015456432400703898 -0.020055852752016635 -0.02226888772992076 -0.02533128270555549 -0.015266022693204706 -0.003676721539121505 0.002343400436250473
0.0009165115969257866 0.005627323350339201 -0.006917192117670696 -0.011889414934865256 -0.007050162313935233 -0.010712872378618137 -0.015391070888035013 -0.0240671013469987
-0.0193641689419199 -0.008028450268910204 -0.0025685186616102203 -0.0004812463261877166 -2.0644340509063163e-05 -0.0002501193155159935 -0.0005976010545651675 0.0004007732860916407
00000000: ee22 08c2 e70a f084 3847 4b40 2cd9 c984
00000010: b7a4 25a4 f139 fa84 f765 5e9e bb9a d984
00000020: f4bf 6d9e 96bf cf04 6161 4918 08b3 d484
00000030: 7f6f 37e3 bb31 e984 d902 cec9 0bbb f904
00000040: 8a18 c34c 3c59 0005 e66d 7b53 0e87 c504
00000050: c65c 43ac 55a1 e204 0cff 90e3 2fd5 e004
00000060: 0372 6863 3627 0bbf af1b 2510 61ba 1dbf
00000070: 7a3d 715e 35ee e904 efb4 bc04 adf0 ea84
00000080: 869f a2d5 1780 d484 3924 8b2b f1f5 eb84
00000090: 6696 8ffa 5cc6 d384 b508 b3a9 47a9 d484
000000a0: 5695 599d 40c7 b104 3119 19aa 2613 bf84
000000b0: 6d41 b8c2 1383 dc04 4328 5ba0 75bf c884
000000c0: a3a8 850a 5b5c fd84 2cc4 b56d e726 d904
000000d0: e680 7585 b279 c904 f900 39e4 94da eb84
000000e0: 8795 f304 1ef3 c484 d104 e567 b5ba d984
000000f0: 097a 5699 5755 e284 ab83 7e2e ab39 e084
00000100: 8199 6604 d1ac e384 2c1a 92be cb26 f984
00000110: 5af0 69c1 efd1 1cbf 6282 a371 6594 25bf
00000120: 6a51 b73c ceb4 38bf 8c52 e730 b5a4 29bf
00000130: 4fa4 3669 e582 38bf 550e 19c9 9653 40bf
00000140: 33f4 a48b fd45 47bf d57f 14e5 5f1a 47bf
00000150: 944e 5cff e9ca 38bf a234 c884 77fa 44bf
00000160: 8154 3f9a d597 59bf 2d65 966f fae4 40bf
00000170: 1cab c67e 5d0f 11bf 5cb5 d1c2 0de7 0bbf
00000180: 56f3 59b6 ad25 12bf 9a1e c9b7 593d ffbe
00000190: ca53 901b 92a1 c1be 1e22 59fd c798 dc04
000001a0: 73f3 6370 e7dc e984 4c2a 343b 05fe f004
000001b0: 8ab8 651b 5193 e784 e358 3efb 1164 dc84
000001c0: 5161 a1d2 d3ac f084 9b79 cc84 34f7 0005
000001d0: 92e5 762c 8818 f884 4718 0c5a cf40 c784
000001e0: eedf 6036 4314 d7be a985 edfc c888 b0be
000001f0: f8b2 c352 1260 0dbf e31e 7cd4 6ef0 43bf
00000200: 9db3 42d4 8f59 4bbf f875 20b5 3d36 52bf
00000210: 1b9c 28d4 4fe1 63bf e2aa f1ea 2e0d 66bf
00000220: c96c 2baa 4146 6dbf 5e5b 54e0 b5d3 6fbf
00000230: 4e68 7a50 7576 70bf fc01 ebac a6d6 6cbf
00000240: 95e8 ed15 a59c 71bf fba0 d164 aa5e 6abf
00000250: 6b0b 966a d662 62bf b369 b714 2c3b 4dbf
00000260: 6eba d2a0 430f 41bf 7fb6 ee34 e664 38bf
00000270: 7659 c831 925f 24bf 0357 7a9c be6d 0dbf
00000280: 032b d9f5 0a26 f6be 32a2 76a6 2edf cc84
00000290: 7acd 9077 873e fa04 7e8f f48b aed5 ed84
000002a0: 33cb d87d 7427 db84 02bc afa0 2864 e884
000002b0: d0c5 a968 0af7 e73e e41d 7d57 e5d2 c63e
000002c0: 3746 c7ea 274d c83e 7ee2 31b6 e05f 263f
000002d0: 3016 e7b7 a745 fbbe 4785 9543 9e90 53bf
000002e0: 9052 06c2 49c7 64bf 378c da40 133e 71bf
000002f0: 33ff b5c8 10be 7abf 6d3c 8a43 11a7 7dbf
00000300: 96a3 258b 35e4 7cbf fec2 12c8 501c 85bf
00000310: 9a3f 9c48 c789 85bf ee4e b0ac 6cbe 84bf
00000320: 951c 63ef c889 84bf ec0d f422 025d 81bf
00000330: a568 369d 1cfd 7dbf 2557 b361 c624 76bf
00000340: ebd2 a244 388e 70bf febe 2a63 8f8d 6bbf
00000350: f7e2 9b3b 80d3 60bf 2252 c5d2 5ca6 52bf
00000360: 08e9 1d59 6b06 45bf 5c76 7825 a26d 19bf
00000370: eec6 3102 407c 12bf b8d7 c07a 77e2 fb04
00000380: 99fc 5dfc de64 ee04 d7da f937 062b fb84
00000390: 355e a530 964c 0c3f 58e9 18e0 fc82 1a3f
000003a0: ac22 bf11 8d1d 353f 8338 9119 7050 523f
000003b0: a730 31ff 80a5 553f 244a 3a3c 3f66 19bf
000003c0: 4e44 c0d0 4848 5ebf a480 7a4d d367 7bbf
000003d0: f062 63c0 84e6 80bf 5375 dcb4 8a42 80bf
000003e0: d90c 87f4 f422 83bf 049a ce27 b29c 83bf
000003f0: 71da 6fc7 8885 8abf 8ba6 202b 6f5d 8cbf
00000400: 7841 7a68 cf78 90bf 13f0 9f44 302e 91bf
00000410: c97e ac4e 343e 87bf 0702 e03d 2bb3 75bf
00000420: 7140 db7b 808a 75bf 1a5e b99f d3f4 5dbf
00000430: c432 4d08 6ed0 44bf 99bb aacc d295 35bf
00000440: d926 21fc 2bf5 42bf 471a a77b 8ba8 4abf
00000450: 17a6 ffc9 b482 33bf 5f5b ec82 1a9a 14bf
00000460: 45aa ed1c 196d ed84 ba30 2d0a e5c8 bb04
00000470: a87e ec9d c27d 133f f087 78ca 3b1d 423f
00000480: 0617 4bec aad1 513f 9817 ae37 e7a6 663f
00000490: 37a7 82e8 402e 6f3f 8b6b be34 6653 5b3f
000004a0: 5830 7cea ff39 66bf 743b 371a c320 73bf
000004b0: 6ec5 ae60 a35c 74bf 510e 6c38 2d73 7fbf
000004c0: d6c3 99ef d4b9 8abf 4d55 5cc5 26f8 8cbf
000004d0: 5d67 029c 891e 90bf fbf1 b4fc 41a3 90bf
000004e0: b5f2 c23b 908a 97bf 630b 812c 0056 9ebf
000004f0: c162 6dee 92d6 99bf c47e 8197 9c40 93bf
00000500: a8c4 957b 9278 8bbf fb56 73c8 0ff7 77bf
00000510: cad4 f408 af5c 43bf 0fb6 270e c57e 5b3f
00000520: f4aa d62a ab21 4b3f f270 c787 62a9 55bf
00000530: ee4b 7400 d5b6 40bf 537c 616e ff88 10bf
00000540: 4a0f 4f3d 82ed f304 130c 18d0 c96a c23e
00000550: 6eb3 53aa 5294 1ebf 6083 a932 68d0 4f3f
00000560: 36c7 1acb aaf9 693f 293b b7a5 9d9f 753f
00000570: ebdc 175e f42c 783f d6e2 d358 7753 633f
00000580: fc29 9e7d 202c 3abf 441b 3f13 cfb9 60bf
00000590: 841a a9fa a92d 41bf 4eb8 d69f b226 603f
000005a0: f865 c6a9 423c 74bf ff4c d3c3 974d 63bf
000005b0: a6ae 89a7 4418 78bf 57d8 b2bc bf4c 8ebf
000005c0: 25e0 fc2b 7be6 87bf 5a02 9f26 4db1 87bf
000005d0: 22bb 2552 a474 87bf 2374 b08e dd3f 8bbf
000005e0: 80d8 6156 503a 74bf 8ba0 64f3 b085 65bf
000005f0: 3214 0b06 f912 65bf 1a6d e283 d39a 6ebf
00000600: 2d43 4ef7 d59c 70bf 7fc3 6703 b750 6abf
00000610: ecd0 9225 261f 32bf 9870 b3d8 6ff6 2dbf
00000620: e16b 10b1 b704 9cbe e7ea 53de 89f6 193f
00000630: 741e 76a9 9d6b 29bf 72c4 ad22 69fb 533f
00000640: 7ca6 5bdb 6caa 6e3f 21e0 b489 085e 723f
00000650: 12d2 3965 8131 5f3f fc47 7882 2cde 7abf
00000660: 4d70 1744 38cb 83bf 71b7 cd86 0ba5 77bf
00000670: a7d6 5e2f e575 7ebf fec5 4db1 9d2f 7abf
00000680: 5e48 ee17 0bfe 6fbf faf7 40ee b6a3 653f
00000690: 884a 7240 a43a 733f 4ede ca1d 38fe 43bf
000006a0: 0c38 01df 4ba2 6e3f 6113 9934 207a 793f
000006b0: d087 a243 f9f2 7cbf fb1c 433a 0089 73bf
000006c0: 3a33 0e2c 1a51 40bf 0555 f22f 01cf 72bf
000006d0: a63d 907b 4110 80bf b48f 1661 0b32 8ebf
000006e0: eb61 5fa0 065b 8abf 687b 1eac e022 78bf
000006f0: e9b6 b43e c977 52bf c547 14fe 3e59 28bf
00000700: 7fb4 8101 2d77 bcbe 6f3c 9d53 4366 27bf
00000710: 1a29 470e 3a29 39bf c7a4 225e 6330 4d3f
00000720: ab68 151c b22a 663f d471 ba15 6273 0f3f
00000730: 8b26 22c9 89c7 79bf 6de9 c589 8221 90bf
00000740: df4e a054 e12e 90bf ab0f 643d 9fa7 8fbf
00000750: ea38 a77e 8589 94bf a3be 12c2 a7cd 96bf
00000760: 19f5 249b 71f0 99bf 2091 a8e1 ca43 8fbf
00000770: 5f79 8bd8 a41e 6ebf fa2a 8687 7732 633f
00000780: b0dd e7aa 4108 4e3f eb40 0f1c ad0c 773f
00000790: e107 cf9e 3355 7cbf 30b4 8242 7a59 88bf
000007a0: 3b14 1e89 a1e0 7cbf 295e 1964 a1f0 85bf
000007b0: b08d ea90 5a85 8fbf d48d c7d4 0ba5 98bf
000007c0: 7370 4761 33d4 93bf 4781 bd5a 3871 80bf
000007d0: e833 d3f4 920a 65bf bbc6 773b f989 3fbf
000007e0: 2fed ff46 aca5 f5be dfbf bd47 4e64 30bf
000007f0: 3bff 217e 0a95 43bf cce5 2828 dc43 3a3f
