W2.npy (npy, 10368 bytes, 1 tensors)

array f8 [10, 128]
-0.06676048314382513 -0.05267629842982354 -0.12172560562416138 -0.0010468202159042356 -0.031965263200533355 -0.07796601868695936 0.0433453826945751 -0.10455749642458102
-0.03536733265343681 -0.0477724729995436 -0.01942743954849442 0.014356728745864356 -0.01417627380770479 -0.06479852589259331 -0.06283505322338245 0.05445437358568499
0.07454804614860767 0.035515599690724826 0.2662160949052497 -0.043624332447598425 -0.18189323150108805 0.06582648791477717 0.10278774360196993 -0.03285097152749537
-0.0053037523979359135 0.018350885307039395 -0.02722704487705389 -0.04955251959354957 0.0253025194902136 -0.030257825197309816 0.03215415966190107 0.044387976603471296
0.21435646121765525 0.1548520034564777 0.17028293109563133 0.04241507334651109 -0.13764289829705095 -0.2054122833218048 0.11836243240351757 -0.1035155587571757
0.2502274340310271 -0.1926347602323231 -0.019856949914907475 -1.1517332464313517e-284 -0.019409100983801237 -0.05453251577696744 0.045820237012231285 -0.052420913657697306
0.041376005882636145 0.00013956888333398388 -0.09081361619195596 0.12885081945008087 -0.015029844607270663 0.21817452279389993 0.08517762827311666 0.007501246801109332
-0.09030114467425188 -0.07247174271953197 -0.11649017322256516 0.008401595197866598 -0.08795940714812027 0.14665421435902723 0.05627939364953796 0.3542503137889744
-0.17839609651503008 -0.019598074574583166 -0.04147835713679858 -0.010701976667667343 0.18001263999384712 -0.11078229925451943 -0.036985753688736744 -0.09950993810153984
-0.12682686831930706 -0.06999375117642175 0.060509704471233695 -0.0846651289244815 -0.02735233751874066 0.3496009084482298 0.15959237624563435 0.05584484063484279
-0.00837294014128933 -0.12355544150424212 -0.0008703570516726134 0.036674442828575696 -0.05522816510015874 0.0006358738719623433 0.05131041099438579 -0.0028590734713261883
0.04246999482054137 0.009734852326369307 -0.07468702841812076 -0.0390207768594941 -0.06275225063145341 0.06478124260461365 0.0404393886779183 0.34147099129733516
0.03467593450082377 -0.02096453780981156 -0.04203112386448761 0.0043454231569359635 -0.0037353824701140447 -0.0721907667259434 0.14099524145406034 0.07855491375479856
-0.11508287226596459 0.013906962243236903 0.4024662485758073 0.05927847926142994 -0.008752188650360603 0.35983931139530506 -0.15191379396840327 -0.07442112602142638
0.23956209966485817 -0.0339627612959792 -0.013353932367382615 -0.09003435856696146 -0.2514081297212539 -0.005910626449131687 0.09513148721163908 -0.08600174590696205
0.008754720754302793 0.08320181627404641 -0.005411876265271526 0.07602788579336715 -0.04736446826430138 0.004670493042825093 -0.08241674258506144 0.010003519923646996
0.12322735181291238 0.17374389057383463 0.10919874408866091 -0.02030019110208044 -0.1475759123907417 0.1154316488150847 -0.08811494655808881 0.0015698553200765813
0.128490808467871 -0.02040247636090537 -0.043603775192391295 -0.0049138185788218484 0.29153692737827747 0.23331096188877917 -0.2876207052152789 -0.11070450467122334
-0.10473191356896 -0.050231374952851966 -0.04876445241318964 -0.015227313365398794 0.09485499518432808 -0.13405803008204875 -0.06592417996603395 0.20594124782853168
0.17509317396278593 -0.0835070498399782 0.1539760955336465 0.17808317134005325 -0.013082950748318284 0.3307354594563706 -0.10685968743347257 -0.09046572710172257
-0.0421266475577753 -0.21879372610811162 -0.03453467086613401 -0.17557314027075008 -0.012005711224660431 0.17221312178623843 -0.060562577521200214 -0.164082786460389
-0.0573843939907985 -0.13542822208787944 -0.09099091642600343 5.799964446706686e-285 -0.06516126787088712 0.32707494058789255 -0.02937260591819963 0.2745727294571755
-0.05698422873704938 0.2772381409215292 -0.008450208482701664 -0.022610298364870465 0.1794583411054917 -0.05997376828540664 -0.17354272767818554 -0.007890395861551137
0.038878597235740414 0.029248178849447606 0.2467941631759059 -0.02010062862960107 -0.030840330257560077 -0.03401637031944436 0.12279952212941637 -0.04283099280071638
0.0925123837403124 -0.02487339982832331 0.1417515442292066 0.06321996927918601 -0.05644463666903578 -0.04818772111808798 0.1487324439504116 0.08346943489828179
-0.048703488662645525 -0.11743197470124987 -0.09749824259829264 -0.010818560571712092 0.07885728233520528 -0.029914374379484326 -0.10221170992365891 -0.07256221691921771
0.021226510713786256 -0.06280050807375669 0.0017014752205491003 -0.0012405562304120027 0.032478127451410654 -8.364248504467304e-05 -0.02831629137237853 -0.013076371506202231
-0.07477673333335066 -0.0232772993768014 0.014543245469632883 0.097007124661124 -0.10147081875373382 -0.15282455697715483 0.06706076394480076 -0.02442327672699517
-0.017918553751292754 -0.19434070849709978 0.15000569528643634 0.05807714433504856 -0.038495450934111906 0.2633927411455165 -0.26737270266835805 -0.16007331041723039
-0.04786243042044606 -0.008677753122419665 0.0019966226733942995 -0.03799181312262451 0.12637317773618156 -0.029510446322756574 -0.0563601898462481 0.0437113761742349
-0.025387343227098035 0.1202822419196324 0.015028874125881041 0.2240916250806991 -0.06581574340469672 -0.007615002713131097 -0.27161770237578137 0.24713253982986147
-0.04083381459088689 0.11012124611251321 0.019647708074360216 -0.10672721663611238 -0.012124476868982874 -0.003136380360271447 -0.11239359517470124 -0.020946126978600273
00000000: 5294 c40b 3717 b1bf 4b94 0f46 63f8 aabf
00000010: 52d7 3dc7 6829 bfbf dff8 e4a5 ae26 51bf
00000020: 3bd0 1b40 c05d a0bf 75b6 75bc 94f5 b3bf
00000030: ff2b 36b2 5d31 a63f 71f9 b1b3 47c4 babf
00000040: 4dc0 2fc2 aa1b a2bf f439 5d32 a275 a8bf
00000050: 94f0 0566 c9e4 93bf 003b 8783 0f67 8d3f
00000060: b5dc 1043 7308 8dbf 8ba6 89dd a296 b0bf
00000070: 6808 a342 f515 b0bf 1670 5993 71e1 ab3f
00000080: 4160 30ac 9415 b33f 81c7 56c6 192f a23f
00000090: 3d5c 523b af09 d13f 5d33 58b2 ed55 a6bf
000000a0: 5c99 5404 4748 c7bf 2ff4 cd34 01da b03f
000000b0: 5e39 332d 4c50 ba3f 5e70 b4b0 d7d1 a0bf
000000c0: 8e01 8631 63b9 75bf 554b fc10 93ca 923f
000000d0: eb32 410d 68e1 9bbf 6169 2da6 f25e a9bf
000000e0: 2c13 de56 e7e8 993f 869f ae46 e8fb 9ebf
000000f0: a340 5b90 8276 a03f 74ee b157 05ba a63f
00000100: 13dd 4e53 0870 cb3f 3e67 48c1 30d2 c33f
00000110: 89b6 0fc2 d4cb c53f f3eb c2b1 6db7 a53f
00000120: ce32 5b51 489e c1bf d72b 881f f34a cabf
00000130: b484 3f18 004d be3f 933e 7de3 fe7f babf
00000140: a46a 6eed b903 d03f f9a3 a27d 41a8 c8bf
00000150: fa6c ee59 6155 94bf d2d1 cf57 0067 fb84
00000160: e578 e1b7 fadf 93bf c84e a997 afeb abbf
00000170: 14cd ec06 c075 a73f 518f 92fb e9d6 aabf
00000180: f3c5 3560 3c2f a53f 46ee 3394 274b 223f
00000190: 4271 93a7 8f3f b7bf 3aea cc03 2f7e c03f
000001a0: 4fe2 6a98 f7c7 8ebf bc2f 1c8c 24ed cb3f
000001b0: 6dac c877 33ce b53f 1d32 0a9b a0b9 7e3f
000001c0: a0d2 2acf f91d b7bf ea50 dd14 828d b2bf
000001d0: d0d9 4bcc 4cd2 bdbf e15e df04 db34 813f
000001e0: 43a4 13f9 8184 b6bf 5f0d 3fb7 90c5 c23f
000001f0: 14b3 5316 a7d0 ac3f 8a91 1482 09ac d63f
00000200: 0410 22ec aed5 c6bf fc19 7385 8411 94bf
00000210: 4ee9 c9b6 a63c a5bf 324d 52fe eaea 85bf
00000220: e9f1 d178 a70a c73f c81a 4690 3a5c bcbf
00000230: 78a6 05f5 cbef a2bf bfe9 c5b9 7b79 b9bf
00000240: 32bf d7e1 dc3b c0bf c322 3a48 1ceb b1bf
00000250: 5dd2 96c3 20fb ae3f 1e9f d727 9dac b5bf
00000260: 1ed6 724c 4002 9cbf 6af8 1b7d dc5f d63f
00000270: 173d 55e2 856d c43f 579d 5ae8 b197 ac3f
00000280: 0c29 a000 d525 81bf 5fe9 8054 54a1 bfbf
00000290: 86c0 5089 1585 4cbf 4273 1819 fec6 a23f
000002a0: e4b6 d8b5 dd46 acbf f3c1 02be 18d6 443f
000002b0: db95 54b2 5b45 aa3f fc72 cc61 e96b 67bf
000002c0: 208b a18d a0be a53f cf33 fcc2 ddef 833f
000002d0: a5c2 7d68 b01e b3bf 9dbb f300 88fa a3bf
000002e0: 9965 3610 8810 b0bf fc8c 61e6 8095 b03f
000002f0: 700c afb7 78b4 a43f 82e7 0925 a9da d53f
00000300: 354f 4749 0bc1 a13f 8159 1351 ba77 95bf
00000310: b2fe d27c 1a85 a5bf ee87 8aa5 81cc 713f
00000320: ca97 8231 aa99 6ebf 523d 2916 187b b2bf
00000330: 7ae9 77cf 210c c23f 8457 84c1 2c1c b43f
00000340: c849 b634 1276 bdbf a3d8 2be0 407b 8c3f
00000350: 1d1f d8cb 01c2 d93f 32a4 91b3 bf59 ae3f
00000360: 267c 2ce0 aaec 81bf ff82 9076 9b07 d73f
00000370: dae9 7344 e971 c3bf c9bd 644e 430d b3bf
00000380: e7f8 b58b f8a9 ce3f a19e 182a 9163 a1bf
00000390: 93c5 5376 4e59 8bbf 54ba 8fe1 7d0c b7bf
000003a0: e27b c61f 1217 d0bf aa2b c4b4 bd35 78bf
000003b0: 2ed2 6482 895a b83f e6bd 11de 3504 b6bf
000003c0: 674d 9aba feed 813f 7e65 ddd7 b64c b53f
000003d0: 1304 1c79 c32a 76bf 6f08 1143 9076 b33f
000003e0: ac0d 60d4 2740 a8bf 9587 00ee 5d21 733f
000003f0: 4db2 0b7e 4319 b5bf f9e8 55b7 b97c 843f
00000400: 5357 02e6 d38b bf3f 6f7c f263 3d3d c63f
00000410: b704 a0ea 72f4 bb3f d53f 8bc3 92c9 94bf
00000420: eaa2 b27a c4e3 c2bf 978a 95b4 ed8c bd3f
00000430: bf7a c17d b38e b6bf ee69 9650 73b8 593f
00000440: ad61 1a06 6372 c03f 32f6 e802 63e4 94bf
00000450: 0aee dde8 3b53 a6bf 4c24 8321 8320 74bf
00000460: 37a0 2a80 8aa8 d23f 6f28 8e33 22dd cd3f
00000470: 4555 a3ac 6068 d2bf 4c31 1563 2157 bcbf
00000480: 744d a0ef b5cf babf 79ac 4f41 edb7 a9bf
00000490: e5dc a480 a7f7 a8bf e45b 4867 7f2f 8fbf
000004a0: 22ce 2dbe 6a48 b83f 8cfa 7b43 d028 c1bf
000004b0: 8040 f834 68e0 b0bf b215 2966 485c ca3f
000004c0: 0125 f6ff 7369 c63f 7453 0cd0 b760 b5bf
000004d0: 7265 571b 7db5 c33f a0ce 6fea 6dcb c63f
000004e0: 632c cbec 3bcb 8abf 8287 7f0f c52a d53f
000004f0: ac9c c90e 285b bbbf ec8d 4f0b c328 b7bf
00000500: a2fd 19bb 9f91 a5bf 2f27 1acd 6e01 ccbf
00000510: 7b76 e543 87ae a1bf 0f6b c23f 2e79 c6bf
00000520: 40e1 9948 7396 88bf 6ac9 015f 140b c63f
00000530: 424a a1e3 0e02 afbf c58a d72c aa00 c5bf
00000540: 3b86 fbbe 7c61 adbf b553 6944 b655 c1bf
00000550: 9062 4842 2e4b b7bf f8d6 7631 4f99 eb04
00000560: c5aa 78aa 68ae b0bf 10a2 4abb cbee d43f
00000570: 1292 4437 da13 9ebf ee16 597f 9992 d13f
00000580: 5677 a06d 092d adbf 408e 1d0b 45be d13f
00000590: 1ce5 9ec8 574e 81bf 97a3 1e70 2727 97bf
000005a0: 9e70 05ad 7df8 c63f 3ab2 ceba e1b4 aebf
000005b0: 7f10 ebe9 a536 c6bf b43f 6c01 d728 80bf
000005c0: 04a2 483f e5e7 a33f 77f5 800e 3cf3 9d3f
000005d0: fa93 d77d f396 cf3f 076a 5f5a 4295 94bf
000005e0: a68e 6a87 9b94 9fbf 4ded 19fc 976a a1bf
000005f0: 29a1 821b ca6f bf3f d627 aba2 f1ed a5bf
00000600: b4bf a33e e4ae b73f 8e40 369b 6978 99bf
00000610: ba9b 4f23 ea24 c23f 451b 8214 2f2f b03f
00000620: 9264 0eb9 4fe6 acbf cdba 8a9c 0fac a8bf
00000630: 8782 4f2b aa09 c33f 7c8d 1abd 405e b53f
00000640: b2ab 03e6 a9ef a8bf a7b8 d89a 0510 bebf
00000650: 4f8c 6013 a5f5 b8bf dc2b c39e 0a28 86bf
00000660: 885f aea8 fd2f b43f c88c 8fae dfa1 9ebf
00000670: 38ee 63ef 8b2a babf 60e2 97fc 6f93 b2bf
00000680: e8ad 4b05 67bc 953f 0756 59b0 b113 b0bf
00000690: 3e74 571b 81e0 5b3f 92de 0f1c 4553 54bf
000006a0: 106f 7a1e f9a0 a03f 09e2 87f3 26ed 15bf
000006b0: 96b1 8d25 f2fe 9cbf 4581 c1df c8c7 8abf
000006c0: d01f 2b68 9124 b3bf 9110 401e 01d6 97bf
000006d0: 27b2 5b5d d9c8 8d3f 9505 e67b 75d5 b83f
000006e0: 6cae 0bd8 fdf9 b9bf 7d0c 1f4d c18f c3bf
000006f0: 98d9 fceb e42a b13f 7de3 365b 6a02 99bf
00000700: 10e7 69c9 3d59 92bf c664 a305 28e0 c8bf
00000710: b707 bcf9 6233 c33f 67d2 2097 49bc ad3f
00000720: b312 9dfd acb5 a3bf 8652 4e3a 6ddb d03f
00000730: 4f70 7365 a21c d1bf c42b 9a40 487d c4bf
00000740: e5cc b9aa 6c81 a8bf 2e8f e84e a4c5 81bf
00000750: 1ab4 b5a2 385b 603f a83c c1b5 a973 a3bf
00000760: a6f7 bb0c ff2c c03f e2eb 6287 fc37 9ebf
00000770: ab39 5f28 3edb acbf fc52 4366 5661 a63f
00000780: 6623 92c3 23ff 99bf 059a 5527 d1ca be3f
00000790: f94d ee56 75c7 8e3f 6bb9 83cc 08af cc3f
000007a0: 852f 7cf1 4cd9 b0bf 8622 cab9 e830 7fbf
000007b0: 3dfe 2d37 2f62 d1bf c35f 2c00 0aa2 cf3f
000007c0: 4442 7a74 2be8 a4bf 13e4 a5ee e730 bc3f
000007d0: 3da1 7b5e 871e 943f df92 0b91 7952 bbbf
000007e0: bc2e 11bd b7d4 88bf 43e5 6762 77b1 69bf
000007f0: ee21 8e9f d3c5 bcbf d25f 67c9 e672 95bf
